…
src/main.py --output_dir experiments --comment classification sample LevelsWindTurbines --name LevelsWindTurbinesSensors.ts --records_file Classification_records.xls --data_dir ./Level
sWindTurbines/ --data_class tsra --test_ratio 0.2 --epochs 10 --lr 0.001 --optimizer RAdam --pos_encoding learnable --task classification --key_metric accuracy --seed 1234

2022-04-11 09:22:26,105 | INFO : Using device: cpu
2022-04-11 09:22:26,106 | INFO : Loading and preprocessing data ...
2022-04-11 09:23:18,725 | INFO : 1152 samples may be used for training
2022-04-11 09:23:18,725 | INFO : 288 samples will be used for validation
2022-04-11 09:23:18,725 | INFO : 360 samples will be used for testing
2022-04-11 09:23:21,886 | INFO : Model:
TSTransformerEncoderClassiregressor(
  (project_inp): Linear(in_features=24, out_features=64, bias=True)
  (pos_enc): LearnablePositionalEncoding(
    (dropout): Dropout(p=0.1, inplace=False)
  )
  (transformer_encoder): TransformerEncoder(
    (layers): ModuleList(
      (0): TransformerBatchNormEncoderLayer(
        (self_attn): MultiheadAttention(
          (out_proj): NonDynamicallyQuantizableLinear(in_features=64, out_features=64, bias=True)
        )
        (linear1): Linear(in_features=64, out_features=256, bias=True)
        (dropout): Dropout(p=0.1, inplace=False)
        (linear2): Linear(in_features=256, out_features=64, bias=True)
        (norm1): BatchNorm1d(64, eps=1e-05, momentum=0.1, affine=True, track_running_stats=True)
        (norm2): BatchNorm1d(64, eps=1e-05, momentum=0.1, affine=True, track_running_stats=True)
        (dropout1): Dropout(p=0.1, inplace=False)
        (dropout2): Dropout(p=0.1, inplace=False)
      )
      (1): TransformerBatchNormEncoderLayer(
        (self_attn): MultiheadAttention(
          (out_proj): NonDynamicallyQuantizableLinear(in_features=64, out_features=64, bias=True)
        )
        (linear1): Linear(in_features=64, out_features=256, bias=True)
        (dropout): Dropout(p=0.1, inplace=False)
        (linear2): Linear(in_features=256, out_features=64, bias=True)
        (norm1): BatchNorm1d(64, eps=1e-05, momentum=0.1, affine=True, track_running_stats=True)
        (norm2): BatchNorm1d(64, eps=1e-05, momentum=0.1, affine=True, track_running_stats=True)
        (dropout1): Dropout(p=0.1, inplace=False)
        (dropout2): Dropout(p=0.1, inplace=False)
      )
      (2): TransformerBatchNormEncoderLayer(
        (self_attn): MultiheadAttention(
          (out_proj): NonDynamicallyQuantizableLinear(in_features=64, out_features=64, bias=True)
        )
        (linear1): Linear(in_features=64, out_features=256, bias=True)
        (dropout): Dropout(p=0.1, inplace=False)
        (linear2): Linear(in_features=256, out_features=64, bias=True)
        (norm1): BatchNorm1d(64, eps=1e-05, momentum=0.1, affine=True, track_running_stats=True)
        (norm2): BatchNorm1d(64, eps=1e-05, momentum=0.1, affine=True, track_running_stats=True)
        (dropout1): Dropout(p=0.1, inplace=False)
        (dropout2): Dropout(p=0.1, inplace=False)
      )
    )
  )
  (dropout1): Dropout(p=0.1, inplace=False)
  (output_layer): Linear(in_features=52800, out_features=12, bias=True)
)
2022-04-11 09:23:21,889 | INFO : Total number of parameters: 837964
2022-04-11 09:23:21,890 | INFO : Trainable parameters: 837964
Confusion matrix
----------------
|   True\Pred |   0 |   1 |   2 |   3 |   4 |   5 |   6 |   7 |   8 |   9 |   10 |   11 |
|-------------+-----+-----+-----+-----+-----+-----+-----+-----+-----+-----+------+------|
|           0 |   0 |   1 |   0 |   1 |   0 |   1 |   0 |   0 |   4 |  12 |    0 |    0 |
…
